artifacts/digits_mlp_state_dict.pt (torch, 72125 bytes, 6 tensors)

net.0.weight f4 [128, 64]
0.095567316 0.22996709 -0.018990157 0.12918925 0.016011879 0.1646615 -0.016569257 0.10676546
0.108685136 -0.0052416967 0.1039967 0.020854147 0.17844675 0.05129865 0.13526475 0.030851627
0.13585003 0.0006576448 -0.17231119 -0.0034773054 0.08316398 -0.08781 -0.008512822 0.090288036
-0.20555466 -0.20178688 -0.19276966 -0.14388376 0.06908074 -0.1671866 -0.016461503 -0.1629919
0.09650342 -0.04344514 -0.14089248 0.16209915 0.16451882 0.07095936 -0.12845434 -0.039421648
0.05082473 -0.06744061 0.123687595 0.27895612 0.15249722 -0.13001963 -0.022025954 0.033854075
0.12828735 -0.031012552 -0.092357226 0.034276247 -0.026080629 0.18685026 0.14554481 0.12384087
0.08916832 0.15088281 0.103506655 -0.079040766 0.048615262 0.0402185 0.16468586 0.11186281
0.038302034 -0.026042685 0.10367398 -0.07408774 -0.07454975 -0.07455425 0.11243035 0.04165639
0.12028134 -0.10315953 -0.123984516 -0.09779547 -0.084086135 0.050630018 0.044759482 0.10386555
-0.06455317 -0.085213974 0.06632227 -0.05052556 0.07586548 -0.02966258 0.07150574 -0.097121
-0.06308122 0.038109556 0.026425943 -0.031869844 0.07450868 0.08497615 -0.09064667 -0.066733524
0.11445774 -0.042179063 -0.04431455 -0.12094933 -0.07158378 0.031225458 -0.016499147 -0.09073575
0.0029320866 -0.08538519 -0.10604958 -0.06883283 -0.10940151 -0.07959226 0.12495111 0.02360937
0.038519964 -0.11658554 -0.082096726 -0.041606978 0.01954639 -0.109990165 -0.05385913 -0.07483357
0.0003464073 -0.0465129 -0.0086619705 -0.08470371 -0.085799396 -0.072925225 -0.04278718 -0.09866011
0.10480873 0.12459217 0.21510085 0.10985799 0.0073171267 0.20667332 0.08454404 -0.14152461
-0.11790866 -0.06596601 0.14654623 0.03065063 -0.00097385736 -0.15001416 0.1324014 -0.17205171
0.0023559814 0.08523852 0.116027184 0.022173047 -0.0109958 -0.24774529 -0.1536599 -0.12595066
-0.118974075 -0.001261024 0.10971401 0.013163599 0.18563533 -0.06259262 -0.18315099 -0.12936437
0.11361894 -0.10011237 -0.022634003 -0.10998263 0.017802117 -0.030377192 -0.109355874 0.10736832
-0.050835542 -0.25509867 -0.2362659 -0.23520574 0.0068189385 0.082684234 0.051907133 -0.09102041
-0.09440312 0.04340965 0.12513402 -0.22658299 0.085014306 0.17242913 0.10832343 -0.16810413
0.11278006 0.23168842 0.17416449 0.11114585 0.07305351 0.027418422 -0.11452909 -0.19094983
0.07990086 0.13740513 0.1475639 -0.037205886 -0.008212112 0.034416813 0.0996485 0.039354578
0.024792492 -0.041682895 0.14525777 0.07662703 -0.0050532073 -0.075510204 -0.115796044 -0.08976004
-0.07014801 0.12258255 0.20658953 0.20664799 -0.07576911 -0.05331924 -0.07326472 0.17970274
0.11546889 0.07178459 0.20053528 0.07619293 0.04269961 0.19056752 0.068539545 0.08288687
-0.12435053 0.14682692 0.13673936 0.052917317 0.0063406327 0.0060562594 0.06897904 0.09321253
0.15351875 0.20963833 0.026551308 0.13677417 0.1425596 0.031150235 -0.15991855 -0.2250682
0.06510329 0.052063778 -0.036173422 -0.06853486 0.0047011706 -0.21146084 -0.23812085 0.10576798
-0.08470227 0.084864534 0.0772595 -0.034187466 0.0033110052 -0.16026798 -0.15332651 -0.07475067
00000000: ccb8 c33d 7e7c 6b3e 3f91 9bbc 304a 043e
00000010: 582b 833c 069d 283e 40bc 87bc d9a7 da3d
00000020: 5096 de3d 8ac2 abbb 39fc d43d 51d6 aa3c
00000030: bfba 363e 891e 523d d882 0a3e 8dbc fc3c
00000040: 451c 0b3e cc65 2c3a 5872 30be 81e3 63bb
00000050: e051 aa3d bbd5 b3bd 5d79 0bbc efe8 b83d
00000060: ec7c 52be 38a1 4ebe 6965 45be 4456 13be
00000070: 347a 8d3d f732 2bbe 46da 86bc 59e7 26be
00000080: 96a3 c53d 88f3 31bd 1e46 10be 52fd 253e
00000090: 9f77 283e 2453 913d 8989 03be 9878 21bd
000000a0: 982d 503d 4d1e 8abd ec4f fd3d 56d3 8e3e
000000b0: 3b28 1c3e de23 05be c66f b4bc 92aa 0a3d
000000c0: c25d 033e 090e febc c925 bdbd 4065 0c3d
000000d0: 0ba7 d5bc ad55 3f3e b309 153e 48a0 fd3d
000000e0: e19d b63d 0681 1a3e 4cfb d33d 20e0 a1bd
000000f0: cc20 473d 27bc 243d 69a3 283e 5418 e53d
00000100: 98e2 1c3d 7857 d5bc 0653 d43d 50bb 97bd
00000110: 8aad 98bd e6af 98bd e241 e63d e49f 2a3d
00000120: 1056 f63d 4e45 d3bd 98eb fdbd fe48 c8bd
00000130: 5a35 acbd 6c61 4f3d b855 373d 76b7 d43d
00000140: 7434 84bd aa84 aebd f8d3 873d e4f3 4ebd
00000150: 5c5f 9b3d f0fe f2bc 9a71 923d 60e7 c6bd
00000160: ba30 81bd c418 1c3d 387b d83c f489 02bd
00000170: 0298 983d fa07 ae3d f6a4 b9bd 96ab 88bd
00000180: d268 ea3d f4c3 2cbd 2c83 35bd 48b4 f7bd
00000190: 849a 92bd 88cc ff3c 3829 87bc aad3 b9bd
000001a0: 4028 403b 6ede aebd 8630 d9bd 3af8 8cbd
000001b0: e60d e0bd 4401 a3bd 5ee6 ff3d 7068 c13c
000001c0: 1cc7 1d3d 66c4 eebd 5422 a8bd 146c 2abd
000001d0: c01f a03c 8642 e1bd 649b 5cbd 5842 99bd
000001e0: 009e b539 5084 3ebd f0ea 0dbc 2479 adbd
000001f0: 98b7 afbd d259 95bd 9c41 2fbd 500e cabd
00000200: f6a5 d63d 2e2a ff3d 6643 5c3e 3afd e03d
00000210: 82c4 ef3b 2ca2 533e 6d25 ad3d d4eb 10be
00000220: 187a f1bd 3019 87bd 3710 163e 0817 fb3c
00000230: 764a 7fba 509d 19be 3c94 073e 532e 30be
00000240: cf66 1a3b 8891 ae3d a99f ed3d 40a4 b53c
00000250: ba27 34bc f1b0 7dbe 0559 1dbe 36f9 00be
00000260: aea8 f3bd f248 a5ba bdb1 e03d 23ac 573c
00000270: 3017 3e3e 8f30 80bd ef8b 3bbe 1878 04be
00000280: 0cb1 e83d b707 cdbd f26a b9bc 933e e1bd
00000290: bfd5 913c 97d9 f8bc f9f5 dfbd ece3 db3d
000002a0: ee38 50bd 4b9c 82be b0ef 71be c6d9 70be
000002b0: 6771 df3b 5a56 a93d 939c 543d e968 babd
000002c0: 6c56 c1bd 51ce 313d 2223 003e 5f05 68be
000002d0: fb1b ae3d 4391 303e add8 dd3d 7d23 2cbe
000002e0: 3bf9 e63d bb3f 6d3e 2d58 323e 6fa0 e33d
000002f0: 149d 953d 999c e03c 3a8e eabd 5a88 43be
00000300: 10a3 a33d eeb3 0c3e fe1a 173e 3365 18bd
00000310: 188c 06bc a5f8 0c3d 8314 cc3d 4432 213d
00000320: a019 cb3c afbb 2abd 74be 143e a2ee 9c3d
00000330: 6095 a5bb 18a5 9abd 7a26 edbd 1dd4 b7bd
00000340: c3a9 8fbd 8f0c fb3d 358c 533e 889b 533e
00000350: d62c 9bbd 4765 5abd d00b 96bd ff03 383e
00000360: f47a ec3d cd03 933d 1f59 4d3e 0a0b 9c3d
00000370: c9e5 2e3d 2224 433e 765e 8c3d 97c0 a93d
00000380: 7eab febd cc59 163e 6705 0c3e d4bf 583d
00000390: 15c5 cf3b 9673 c63b e244 8d3d 36e6 be3d
000003a0: 0534 1d3e 6eab 563e 2182 d93c 870e 0c3e
000003b0: 25fb 113e c72e ff3c b0c1 23be 4778 66be
000003c0: e054 853d d440 553d 952a 14bd 015c 8cbd
000003d0: 470c 9a3b 3189 58be f4d5 73be e29c d83d
000003e0: 6278 adbd 75cd ad3d 3b3a 9e3d 2808 0cbd
000003f0: 73fd 583b 4a1d 24be a001 1dbe e116 99bd

net.0.bias f4 [128]
0.03625023 -0.020133838 0.11326732 0.09046753 -0.033900872 0.057510484 -0.030187868 0.01354929
0.093093425 -0.11785029 -0.0730789 0.013313535 -0.0017011539 0.0022754464 0.07705553 -0.053354234
0.13509172 -0.042474706 0.14332561 -0.0037050238 -0.060077343 0.10981966 0.14859873 0.0019761897
0.15460931 0.074477285 0.0936999 0.011077924 0.0051712245 -0.01774119 -0.05642894 0.09123069
0.121223435 0.2298905 -0.0683138 0.123502314 0.15590246 0.11203197 -0.013293869 0.14538115
0.118602544 0.15913455 -0.065347284 0.107676014 0.06870671 -0.07444554 0.17702015 0.12147426
-0.051758975 -0.082458764 0.05210315 0.1566945 0.13141607 0.043375462 0.059059635 -0.0251327
0.14731465 0.12178178 -0.045732103 0.030419614 0.16471821 0.017957978 -0.03257604 0.16089684
0.107812144 0.16421066 -0.005014361 0.0809459 0.075527176 0.101705775 0.12513183 0.06140323
0.03903105 0.044625066 0.0015838608 0.10409735 0.15277725 -0.007464001 -0.051724046 0.13458198
0.09956347 -0.003337298 0.13055356 -0.0348495 0.0053107548 0.011104113 0.06069271 0.057679527
0.12707229 0.038025133 0.04460233 -0.06602044 -0.04379022 0.091097675 0.13123769 0.19198945
-0.061393898 0.059151337 0.013752215 0.045828175 0.03908353 0.17329538 0.17439748 -0.012686023
0.05484225 0.10759052 0.008347291 0.03841083 -0.042811688 -0.030642986 -0.059587114 0.035682715
-0.04822877 0.062534064 -0.022858776 0.1484097 -0.011880906 0.10752897 -0.008696644 0.07997683
0.023676874 0.073982805 0.12504598 0.16098401 -0.058438886 0.113268204 0.09635846 -0.03318434
00000000: 1f7b 143d b8ef a4bc b2f8 e73d 0a47 b93d
00000010: a4db 0abd 1d90 6b3d 8c4c f7bc d7fd 5d3c
00000020: c4a7 be3d 7e5b f1bd 64aa 95bd 0321 5a3c
00000030: 41f9 deba a81f 153b 4acf 9d3d f889 5abd
00000040: 7c55 0a3e f5f9 2dbd f3c3 123e fccf 72bb
00000050: a913 76bd 21e9 e03d 442a 183e f682 013b
00000060: e751 1e3e 8c87 983d bce5 bf3d 2e80 353c
00000070: 6073 a93b f955 91bc 0822 67bd 28d7 ba3d
00000080: fe43 f83d 6a68 6b3e 1be8 8bbd c8ee fc3d
00000090: e5a4 1f3e 0471 e53d 87ce 59bc ccde 143e
000000a0: e4e5 f23d 2bf4 223e ccd4 85bd 3e85 dc3d
000000b0: 1bb6 8c3d e776 98bd c544 353e 7fc7 f83d
000000c0: 3801 54bd 24e0 a8bd 1d6a 553d 8674 203e
000000d0: ef91 063e 78aa 313d 84e8 713d 18e3 cdbc
000000e0: a7d9 163e ba68 f93d 9651 3bbd 8e32 f93c
000000f0: e4ab 283e 9c1c 933c 746e 05bd 24c2 243e
00000100: 9dcc dc3d d726 283e 824f a4bb f7c6 a53d
00000110: fead 9a3d 1e4b d03d 8f22 003e f481 7b3d
00000120: 06df 1f3d c6c8 363d 8d99 cf3a fe30 d53d
00000130: a471 1c3e 9494 f4bb 98dc 53bd dccf 093e
00000140: efe7 cb3d 92b6 5abb d5af 053e 59be 0ebd
00000150: d705 ae3b 07ee 353c eb98 783d 5e41 6c3d
00000160: 3d1f 023e 3ec0 1b3d efb0 363d b935 87bd
00000170: 605d 33bd 6b91 ba3d 2c63 063e e298 443e
00000180: 2b78 7bbd ac48 723d f850 613c 53b6 3b3d
00000190: 0d16 203d 5874 313e 4195 323e 09d9 4fbc
000001a0: 44a2 603d 6b58 dc3d 13c3 083c ad54 1d3d
000001b0: 4f5b 2fbd 0007 fbbc 9e11 74bd 0a28 123d
000001c0: 888b 45bd dc11 803d 5442 bbbc b6f8 173e
000001d0: 22a8 42bc 2638 dc3d 5e7c 0ebc e4ca a33d
000001e0: 01f6 c13c 4c84 973d 0e0c 003e fed8 243e
000001f0: 9d5d 6fbd 29f9 e73d 9657 c53d 4dec 07bd

net.2.weight f4 [64, 128]
0.10076444 0.017088316 -0.062630504 0.12564667 -0.09766565 -0.12691255 -0.29294482 0.006310447
0.055231806 -0.06330452 0.022400383 0.14350113 -0.00855613 0.22463642 -0.31431133 0.056046866
0.054834135 0.0010229782 0.020031903 0.10070852 -0.19132926 0.16935086 -0.0047487016 -0.02023775
0.011468587 -0.1668926 0.07405627 -0.1411766 0.110765524 0.21789105 0.08782014 -0.057017405
-0.026522158 0.08469588 0.23279779 0.07548263 0.19335613 0.09222749 0.028161889 0.10330457
-0.039450765 -0.023048988 0.027673675 -0.12821612 -0.18602885 0.24717613 0.122709215 0.17605016
0.04170881 0.27397633 0.17747192 -0.014959915 0.021996524 0.0727873 -0.12717237 0.016880894
-0.051623993 -0.10082915 -0.100536704 -0.07947562 0.20459197 0.13703875 -0.14829522 -0.024867734
0.12192457 0.075997695 0.22576556 0.073362075 -0.079460226 0.047562324 -0.03588817 -0.12918714
-0.11794487 0.05095001 0.038984355 0.12191567 -0.03073457 0.27252248 0.14850396 0.15961708
0.123493984 0.056807447 -0.13697842 0.2055185 -0.08473648 -0.08520144 0.1006385 -0.10917199
-0.10481546 0.036317155 0.0013378918 0.11443435 0.22187138 -0.014559503 0.19898318 0.16460526
-0.0736199 0.06834591 -0.19357778 -0.25537568 -0.046645105 -0.0069134077 0.06038474 0.021414788
0.012090357 -0.03697406 0.07401604 -0.2161169 -0.2473109 0.17853004 0.24248832 -0.110955544
0.025493503 -0.052827675 0.034847606 0.02219544 0.06137221 -0.06117486 -0.053312402 0.12716366
-0.089909755 -0.009719605 0.052202914 0.08777989 0.19515085 -0.10949239 -0.17295891 -0.029327739
-0.001891062 0.041756265 0.19945942 0.0848483 0.0018684125 0.016968966 0.15460663 -0.026270874
0.012664041 -0.06703234 0.16168354 0.032814812 0.06826653 -0.074794576 -0.09508541 0.01899888
-0.025044851 -0.11103202 0.07040079 0.048315488 0.09229469 -0.089505464 0.19593233 0.08160381
0.09955453 0.06693045 -0.06179793 -0.048355997 0.06761254 -0.061117947 0.075043 -0.0112847015
0.19593753 0.11253105 -0.15301459 -0.045170978 -0.06871374 -0.19212061 -0.11224848 0.048589706
0.06696397 0.037604634 -0.087949485 0.2749071 0.056570057 -0.1635128 0.16760226 -0.018908318
0.1870231 0.13741085 -0.012511276 -0.06065703 0.053542934 0.11087686 0.1443455 -0.11224565
0.20079796 0.017925072 0.14066303 -0.0075218803 -0.0066162394 -0.031429607 0.15063559 0.032197222
-0.03720465 -0.08685479 -0.09350343 -0.0037150648 0.1829046 0.07218764 0.08737674 0.09604933
0.0924486 0.045172337 -0.056018554 -0.04009964 0.05694726 -0.19215043 0.030399265 -0.027155329
0.010144831 -0.00026912728 0.031774484 -0.11816733 0.21722233 0.15333328 0.028970286 0.11704197
-0.033370424 -0.21809576 0.19091004 -0.24435432 -0.15094334 0.07301148 -0.050209768 -0.1726317
-0.058082573 -0.05079394 -0.09497351 -0.13553856 -0.019817783 0.07422058 0.26700372 -0.17964959
0.071761474 0.053447936 -0.006470252 -0.19290842 0.11161169 -0.15173699 -0.05319997 0.26939505
0.024955325 0.14125794 0.22618468 0.11982301 0.068458326 0.124292694 -0.11704692 -0.15334515
-0.013158692 -0.117542736 -0.12938331 -0.19309622 -0.09565561 0.021239175 0.026145123 0.19706061
00000000: 965d ce3d ccfc 8b3c 6c44 80bd 85a9 003e
00000010: ee04 c8bd 5df5 01be ddfc 95be dec7 ce3b
00000020: bf3a 623d cda5 81bd 0281 b73c f6f1 123e
00000030: 032f 0cbc 1707 663e 6aed a0be 6691 653d
00000040: c299 603d 7415 863a f219 a43c 4540 ce3d
00000050: d1eb 43be 506a 2d3e ff9a 9bbb a3c9 a5bc
00000060: bee6 3b3c e5e5 2abe d0aa 973d 9990 10be
00000070: 09d9 e23d d51e 5f3e 0cdb b33d 158b 69bd
00000080: ff44 d9bc 0975 ad3d 8b62 6e3e a396 9a3d
00000090: 26ff 453e c4e1 bc3d c3b3 e63c 5991 d33d
000000a0: 2097 21bd 3bd1 bcbc e7b3 e23c 164b 03be
000000b0: 597e 3ebe bd1b 7d3e f84e fb3d 7e46 343e
000000c0: dbd6 2a3d a046 8c3e 33bb 353e 6e1a 75bc
000000d0: 0e32 b43c 8211 953d 7939 02be cd49 8a3c
000000e0: ae73 53bd 837f cebd 30e6 cdbd 1dc4 a2bd
000000f0: 8f80 513e e353 0c3e b4da 17be 6bb7 cbbc
00000100: 97b3 f93d aea4 9b3d 162f 673e db3e 963d
00000110: 0bbc a2bd b6d0 423d 79ff 12bd a249 04be
00000120: 148d f1bd f5b0 503d 0fae 1f3d ecae f93d
00000130: 11c7 fbbc 1188 8b3e 6c11 183e a972 233e
00000140: 6aea fc3d edae 683d 1244 0cbe 7173 523e
00000150: 528a adbd 187e aebd 8f1b ce3d 9095 dfbd
00000160: 7da9 d6bd 4cc1 143d 335c af3a 8e5c ea3d
00000170: 4032 633e fb8a 6ebc 3fc2 4b3e 488e 283e
00000180: 08c6 96bd f1f8 8b3d 4139 46be 9ac0 82be
00000190: f00e 3fbd de89 e2bb fd55 773d 116e af3c
000001a0: a216 463c 1d72 17bd b995 973d c04d 5dbe
000001b0: 123f 7dbe 94d0 363e dc4e 783e a93c e3bd
000001c0: c0d7 d03c d561 58bd 5dbc 0e3d 36d3 b53c
000001d0: 6d61 7b3d 7d92 7abd 1b5e 5abd 3137 023e
000001e0: 9b22 b8bd fa3e 1fbc b9d2 553d f1c5 b33d
000001f0: a0d5 473e 8c3d e0bd 241c 31be ba40 f0bc
00000200: 83dd f7ba 9e08 2b3d 173f 4c3e f2c4 ad3d
00000210: 85e5 f43a 8002 8b3c 3351 1e3e 0436 d7bc
00000220: d67c 4f3c 4048 89bd 5f90 253e d368 063d
00000230: 53cf 8b3d e62d 99bd 24bc c2bd 8aa3 9b3c
00000240: dc2a cdbc c164 e3bd 4a2e 903d 76e6 453d
00000250: 0005 bd3d a44e b7bd 7ca2 483e e61f a73d
00000260: 3fe3 cb3d d512 893d d41f 7dbd f010 46bd
00000270: 7278 8a3d d056 7abd 25b0 993d 78e3 38bc
00000280: d9a3 483e ae76 e63d dbaf 1cbe 3405 39bd
00000290: cab9 8cbd 44bb 44be 88e2 e5bd 0006 473d
000002a0: 6824 893d 5107 1a3d dc1e b4bd a0c0 8c3e
000002b0: 01b6 673d e66f 27be ed9f 2b3e 9ee5 9abc
000002c0: fc82 3f3e 6eb5 0c3e 18fc 4cbc 8273 78bd
000002d0: d64f 5b3d 6813 e33d 4fcf 133e 0ce1 e5bd
000002e0: fb9d 4d3e 9ad7 923c f809 103e 1b7a f6bb
000002f0: 0acd d8bb 55bc 00bd 3740 1a3e 3ce1 033d
00000300: e763 18bd ede0 b1bd ba7e bfbd 7278 73bb
00000310: 584b 3b3e 1dd7 933d 94f2 b23d 83b5 c43d
00000320: b155 bd3d a106 393d b673 65bd 853f 24bd
00000330: 8841 693d 15c3 44be e107 f93c da74 debc
00000340: 8136 263c a719 8db9 f625 023d b701 f2bd
00000350: 886f 5e3e 6603 1d3e 1853 ed3c b3b3 ef3d
00000360: 6daf 08bd 7f54 5fbe ec7d 433e 0538 7abe
00000370: e490 1abe 0b87 953d c2a8 4dbd 5dc6 30be
00000380: fee7 6dbd 4e0d 50bd 7981 c2bd 9fca 0abe
00000390: e758 a2bc f600 983d b6b4 883e 10f6 37be
000003a0: aef7 923d 39ec 5a3d 6804 d4bb c989 45be
000003b0: ab94 e43d f160 1bbe 36e8 59bd 26ee 893e
000003c0: 1c6f cc3c eca5 103e f59c 673e c465 f53d
000003d0: e133 8c3d 2b8d fe3d 4cb6 efbd 8306 1dbe
000003e0: 8e97 57bc 3fba f0bd 0f7d 04be 04bb 45be
000003f0: 17e7 c3bd c7fd ad3c 4c2e d63c 42ca 493e

net.2.bias f4 [64]
0.038724113 0.0022386883 -0.06817826 -0.0059891604 -0.02634319 0.10457253 -0.05462483 0.09477702
0.091715686 -0.022650152 0.104490876 0.12420259 -0.06163495 0.11235221 0.014961493 0.10062153
-0.039785597 0.08408689 0.042901464 0.05934925 -0.031233853 0.09850534 0.025520954 0.12462614
-0.0050755045 0.073259056 -0.058253244 -0.08861261 0.07608402 0.084765 0.013871108 0.05352943
0.050873406 -0.016365753 0.06796569 0.055680674 -0.012541018 -0.0025026537 -0.044666808 0.09081878
0.03665043 0.0077497214 -0.033544358 -0.046125617 0.1328641 0.077235654 0.09077443 0.13156234
0.11186549 0.100151144 0.115529 0.020336326 0.05593485 -0.021130683 -0.004113939 -0.017635273
0.025425985 0.12825418 0.11666424 0.05399487 0.08607429 -0.019607393 0.051601782 -0.025996838
00000000: 2d9d 1e3d f5b6 123b 0ba1 8bbd b840 c4bb
00000010: accd d7bc 1f2a d63d 49be 5fbd 741a c23d
00000020: 6fd5 bb3d d08c b9bc 50ff d53d ed5d fe3d
00000030: ee74 7cbd ea18 e63d 0d21 753c a912 ce3d
00000040: 39f6 22bd bf35 ac3d 72b9 2f3d 3318 733d
00000050: 23de ffbc 2bbd c93d 5211 d13c fd3b ff3d
00000060: 6b50 a6bb d808 963d f49a 6ebd 877a b5bd
00000070: f0d1 9b3d 4699 ad3d a543 633c ad41 5b3d
00000080: a260 503d 7911 86bc 9831 8b3d 6b11 643d
00000090: d878 4dbc 9003 24bb 8bf4 36bd 32ff b93d
000000a0: c31e 163d 60f1 fd3b cf65 09bd 37ee 3cbd
000000b0: 870d 083e ba2d 9e3d f2e7 b93d 47b8 063e
000000c0: bc19 e53d 0b1c cd3d 789a ec3d 5e98 a63c
000000d0: f11b 653d 411a adbc 39ce 86bb d977 90bc
000000e0: 284a d03c 1055 033e a9ed ee3d ba29 5d3d
000000f0: b847 b03d af9f a0bc 645c 533d 52f7 d4bc

net.4.weight f4 [10, 64]
-0.10613913 0.11909189 0.034454837 -0.043205634 -0.17804495 0.19744493 -0.21609735 0.20477587
-0.2387873 0.23174049 0.12481304 -0.17056379 -0.010318816 -0.02056861 -0.016724229 -0.023138631
-0.15801603 0.1042655 0.27477264 0.019429527 -0.23200428 -0.16363464 -0.21573372 -0.22682846
0.060307443 0.12707554 -0.28252167 0.010131161 0.030430378 -0.023536807 -0.14165229 0.19379173
-0.057377104 -0.30579677 -0.0218787 -0.15517043 0.16972812 -0.1559492 -0.007540651 -0.2376765
-0.24882069 -0.09361875 -0.21165566 0.20354387 -0.1909969 -0.20374681 -0.1608214 0.22572793
-0.10548067 0.010746137 0.1824269 -0.3681919 -0.23802082 -0.25137788 0.034858007 0.02692271
0.25589988 -0.135967 -0.31507072 0.23483752 0.10951375 -0.21009924 0.13300899 0.25631252
0.09096047 -0.29163715 -0.07298715 -0.1766395 0.11815611 -0.25435194 0.24241324 -0.26493073
0.10995467 0.10037861 0.019936372 -0.23764017 -0.064799085 0.014351603 -0.08291826 -0.28923702
-0.23135038 -0.09692273 0.04053818 -0.006836128 0.111859605 0.05575362 0.083292045 0.1736595
0.030442558 -0.18282078 0.050722305 0.1098971 -0.212472 0.19003482 -0.04559772 0.14571904
0.083243385 0.08283652 0.114608556 0.19450606 -0.17932911 0.10494321 0.113848045 -0.08391392
-0.15551421 0.08589281 0.18573634 0.05175181 -0.26443985 0.059839994 0.12557232 -0.1861759
0.1626216 -0.16341785 0.10430781 -0.016576156 0.09174021 -0.02048432 0.02281206 -0.076698706
0.051237807 -0.21747006 -0.0065635154 0.1308679 0.020049738 -0.2635899 0.023712989 -0.111080855
-0.16163392 -0.04895585 -0.03244102 -0.2028398 -0.14836115 -0.124697186 -0.20642984 -0.19623692
-0.08586965 -0.19990729 0.23182456 0.12271299 -0.06711666 -0.25274605 0.015193337 0.29603046
-0.25704497 0.20764837 0.2592453 0.070201844 0.119614005 0.15294047 -0.23917049 0.015214747
-0.016960455 -0.05511339 -0.040869758 0.018291486 -0.22976062 0.15909475 -0.091071986 0.037807718
-0.048684105 0.20900491 0.26626495 -0.3670457 -0.31935057 0.20232879 0.18296479 0.10838511
0.13788219 0.021841655 -0.029720042 0.0978397 0.15427282 -0.325132 -0.2056439 -0.15543869
0.20144972 -0.29076746 -0.29088092 -0.28436896 0.0027632406 -0.2662341 -0.0968173 -0.07974354
0.017803086 0.16318049 0.100722425 -0.16587375 -0.0012550588 -0.24351461 -0.2471424 -0.048800163
-0.28371075 0.2520542 0.07679855 0.18422005 -0.03647393 0.17018649 0.04523387 0.060824893
-0.09918926 0.05199394 -0.3413183 0.22605261 -0.09004012 -0.18508884 0.105281375 -0.10363145
0.104436904 -0.08364859 -0.04478922 0.14549159 0.05784414 -0.18272118 -0.17738314 0.15436108
0.10327843 0.060945254 -0.13925429 -0.0037437808 0.005529659 0.03516983 0.10546959 0.13225915
0.06959402 -0.02355427 -0.11264661 0.08490434 -0.14783187 0.09939709 0.15284432 -0.018186964
0.054266926 -0.085580826 -0.06629463 0.10457053 0.23502299 0.06586115 0.09513951 -0.3208061
0.015505039 -0.095423564 -0.23475169 0.26291472 0.13911353 -0.25049555 -0.3141702 -0.067171074
-0.14587207 0.048744 0.17949371 -0.07371556 -0.29816058 0.04147767 -0.24285263 -0.119604476
00000000: 795f d9bd 73e6 f33d 8420 0d3d 64f8 30bd
00000010: 6a51 36be 012f 4a3e a048 5dbe c4b0 513e
00000020: a884 74be 614d 6d3e fb9d ff3d 46a8 2ebe
00000030: 4010 29bc 807f a8bc 4001 89bc 3a8d bdbc
00000040: f4ce 21be 2789 d53d 00af 8c3e ac2a 9f3c
00000050: 8892 6dbe d78f 27be 4de9 5cbe b845 68be
00000060: f004 773d 1720 023e aea6 90be 2bfd 253c
00000070: 2149 f93c 43d0 c0bc 4c0d 11be 5771 463e
00000080: 4104 6bbd 6591 9cbe f63a b3bc ffe4 1ebe
00000090: 35cd 2d3e 26b1 1fbe 9117 f7bb 7861 73be
000000a0: daca 7ebe 30bb bfbd 43bc 58be ce6d 503e
000000b0: b194 43be 01a3 50be 5dae 24be 3925 673e
000000c0: 4006 d8bd 9110 303c 1ece 3a3e a683 bcbe
000000d0: bbbb 73be 9ab4 80be 45c7 0e3d 048d dc3c
000000e0: 4f05 833e ef3a 0bbe f350 a1be 3f79 703e
000000f0: bf48 e03d 4124 57be 8233 083e 653b 833e
00000100: 7c49 ba3d 7751 95be 497a 95bd fce0 34be
00000110: d5fb f13d 6b3a 82be 2d3b 783e 00a5 87be
00000120: ea2f e13d 4d93 cd3d 9a51 a33c f257 73be
00000130: 62b5 84bd fc22 6b3c 0cd1 a9bd e016 94be
00000140: 1de7 6cbe 6d7f c6bd 5d0b 263d 9901 e0bb
00000150: a616 e53d e85d 643d 0595 aa3d ccd3 313e
00000160: ac62 f93c 5f35 3bbe 31c2 4f3d bb11 e13d
00000170: 4392 59be 7d98 423e adc4 3abd 5f37 153e
00000180: 827b aa3d 32a6 a93d e4b7 ea3d 992c 473e
00000190: 0da2 37be 77ec d63d 2a29 e93d 10db abbd
000001a0: 1e3f 1fbe 92e8 af3d ab31 3e3e b5f9 533d
000001b0: a964 87be c81a 753d 0896 003e e5a4 3ebe
000001c0: 4786 263e 0257 27be 559f d53d b8ca 87bc
000001d0: 4be2 bb3d bcce a7bc 5be0 ba3c 3614 9dbd
000001e0: bcde 513d 79b0 5ebe c212 d7bb 3c02 063e
000001f0: 593f a43c 41f5 86be be41 c23c 5c7e e3bd
00000200: 5d83 25be ee85 48bd e0e0 04bd 3db5 4fbe
00000210: fceb 17be 3d61 ffbd 5862 53be 55f2 48be
00000220: 6ddc afbd 7fb4 4cbe 6b63 6d3e f350 fb3d
00000230: 7674 89bd ee67 81be 79ed 783c 4e91 973e
00000240: 669b 83be c6a1 543e cdbb 843e fcc5 8f3d
00000250: 30f8 f43d 6d9c 1c3e 1ce9 74be 4647 793c
00000260: a7f0 8abc 94be 61bd 0c67 27bd 07d8 953c
00000270: 5e46 6bbe bce9 223e f383 babd 44dc 1a3d
00000280: fc68 47bd 6205 563e e153 883e 6aed bbbe
00000290: eb81 a3be 472f 4f3e 1f5b 3b3e 03f9 dd3d
000002a0: fd30 0d3e 45ed b23c 7277 f3bc 2e60 c83d
000002b0: b2f9 1d3e b477 a6be 5194 52be 522b 1fbe
000002c0: d648 4e3e 79df 94be 58ee 94be cf98 91be
000002d0: 7c17 353b d64f 88be 2648 c6bd 9550 a3bd
000002e0: c7d7 913c c918 273e 8f47 ce3d cfda 29be
000002f0: c980 a4ba e55b 79be e612 7dbe aee2 47bd
00000300: 8942 91be 400d 813e 8f48 9d3d 2ea4 3c3e
00000310: b065 15bd 5e45 2e3e 2747 393d 8623 793d
00000320: bd23 cbbd 99f7 543d 46c1 aebe 567a 673e
00000330: f466 b8bd ee87 3dbe c39d d73d ba3c d4bd
00000340: 04e3 d53d f44f abbd e774 37bd bffb 143e
00000350: faed 6c3d 431b 3bbe eda3 35be d510 1e3e
00000360: a483 d33d bba1 793d ad98 0ebe 385a 75bb
00000370: 2432 b53b 3d0e 103d 7100 d83d f16e 073e
00000380: 4f87 8e3d e2f4 c0bc 44b3 e6bd 54e2 ad3d
00000390: 3d61 17be b490 cb3d 3983 1c3e d4fc 94bc
000003a0: ff46 5e3d 0045 afbd 7bc5 87bd 1329 d63d
000003b0: dea9 703e 36e2 863d 81d8 c23d b240 a4be
000003c0: d908 7e3c 6e6d c3bd bf62 70be c29c 863e
000003d0: c773 0e3e f440 80be ebda a0be fd90 89bd
000003e0: 7d5f 15be caa7 473d 33cd 373e 2ff8 96bd
000003f0: 81a8 98be 7de4 293d 5cae 78be 31f3 f4bd

net.4.bias f4 [10]
0.113615915 0.00817421 0.06457404 0.049417384 -0.10931538 -0.04331591 -0.046334624 -0.04259
-0.07361247 -0.054474175
00000000: 76af e83d 1fed 053c 653f 843d e269 4a3d
00000010: bee0 dfbd 066c 31bd 60c9 3dbd da72 2ebd
00000020: 22c2 96bd 5020 5fbd
